src/hand_detection/model/keypoint_classifier/keypoint_classifier.tflite (tflite, 6864 bytes, 6 tensors)

arith.constant f4 [11, 10]
0	0x3f2d513d	0.67702085
1	0x3ed700e9	0.41992882
2	0x3f37e98c	0.7184074
3	0x3b0ebcc7	0.002178
4	0xbef39753	-0.4757639
5	0xbf1347cf	-0.57531446
6	0xbe70d5c6	-0.23519048
7	0x3ec5f89e	0.38666242
8	0x3e11d806	0.14242563
9	0x3f08b6ae	0.5340375
10	0x3f5017cc	0.8128631
11	0x3de815d4	0.113322884
12	0xbe9a1c93	-0.30099925
13	0x3ee1c762	0.4409743
14	0xbe90f8b9	-0.2831476
15	0x3f09d95e	0.538473
16	0x3ef96978	0.4871328
17	0x3f0e553d	0.55598813
18	0xbf498ec9	-0.787335
19	0xbead2e16	-0.33824223
20	0xbdf949a7	-0.12172251
21	0x3e87ff2c	0.26561868
22	0x3ea0ef68	0.31432652
23	0x3e02426c	0.1272065
24	0x3f801e9c	1.0009341
25	0xbeb0b3c9	-0.34512165
26	0x3f53cd54	0.8273518
27	0xbf1e9a86	-0.61954534
28	0xbf29f9a4	-0.66396546
29	0xbf67d19a	-0.905542
30	0xbf27ff2b	-0.6562373
31	0x3f04bd6d	0.5185154
32	0x3ed2f5ec	0.41203249
33	0xbfc712c4	-1.5552602
34	0xbef584c3	-0.47952852
35	0x3fad4401	1.3536378
36	0xbf939e3c	-1.1532664
37	0xbf1346b9	-0.5752979
38	0xbefd85a3	-0.4951602
39	0x3df54308	0.11975676
40	0xbf0b7126	-0.54469526
41	0x3edec299	0.4350784
42	0xbebe00dd	-0.37110034
43	0x3ee129e4	0.43977273
44	0x3eaac49d	0.3335313
45	0xbf3c8dc5	-0.73653823
46	0xbed1eb4d	-0.40999833
47	0xbeb5823c	-0.35450923
48	0x3f7eb8f9	0.99500996
49	0xbfc03509	-1.5016185
50	0x3f0aeb41	0.5426522
51	0xbf39cba2	-0.72576344
52	0x3f04dec6	0.51902425
53	0x3f4a0417	0.7891249
54	0xbfc8f5ad	-1.5699974
55	0xbfad588b	-1.3542646
56	0x3ef2e11a	0.47437364
57	0x3ce6e392	0.028184686
58	0xbf3cfd3f	-0.7382392
59	0xbf98a908	-1.1926584
60	0x3f1a0572	0.6016456
61	0xbebe3770	-0.3715167
62	0xbf408404	-0.7520144
63	0x3d0606fa	0.032721497
64	0x3eec24e5	0.46121898
65	0xbf99bbb1	-1.2010404
66	0xbedb489d	-0.42828837
67	0x3c78e108	0.01519037
68	0xbfc51326	-1.5396469
69	0x3f17d9c9	0.5931669
70	0xbfbf0c70	-1.4925671
71	0x3f83bacc	1.0291381
72	0xbfe9261d	-1.8214756
73	0xbfc5d7de	-1.5456502
74	0x3e4612b5	0.19343074
75	0xbef9d1ee	-0.48792976
76	0xbfb5fd10	-1.4217854
77	0xbe817d3f	-0.25290868
78	0x3f2a171b	0.66441506
79	0xbe942e08	-0.2894137
80	0xbfeb0565	-1.8361021
81	0x3e86591b	0.26239857
82	0x3e8fdaf5	0.28096738
83	0xbf90c02e	-1.1308649
84	0xbf720918	-0.94545126
85	0xbf049384	-0.5178759
86	0xbea04b74	-0.31307566
87	0x3e138747	0.14407073
88	0x3f573cdb	0.84077233
89	0x3f0d236a	0.5513216
90	0xbfbbd51c	-1.4674411
91	0xc00bd1c5	-2.1846783
92	0xbfa54878	-1.2912741
93	0xbf2ecddd	-0.6828287
94	0x3f65cd7b	0.89766663
95	0xbeb2bbe8	-0.34908986
96	0x3f6f7a72	0.9354621
97	0xbe3de8c7	-0.18545829
98	0xbe93392a	-0.2875455
99	0x3d93e73a	0.07221837
100	0xbf5efd92	-0.8710567
101	0xbf29e95d	-0.6637171
102	0xbf7fbf8a	-0.9990164
103	0xbe97307a	-0.29529172
104	0xbf9ff3c0	-1.2496262
105	0xbfa06342	-1.2530291
106	0xbf4487e8	-0.76769876
107	0xbf5a2fe8	-0.8522935
108	0xbfa2245b	-1.2667345
109	0xbf274ea3	-0.65354365

arith.constant1 f4 [10, 20]
0	0x3ef5e8b4	0.480291
1	0xbee47116	-0.44617528
2	0x3d567605	0.052358646
3	0x3f819d05	1.0126044
4	0x3c98502d	0.018592918
5	0x3d256071	0.040375177
6	0x3d97f323	0.074194215
7	0x3f81ca34	1.0139832
8	0x3ebc9814	0.36834776
9	0xbed02b11	-0.40657857
10	0x3f089fee	0.53369033
11	0x3ede0830	0.43365622
12	0x3f646380	0.89214325
13	0x3f66d525	0.9016898
14	0x3ee4cbcc	0.44686735
15	0xbe32b890	-0.17453218
16	0x3f54ad06	0.8307651
17	0x3f8679ff	1.050598
18	0x3fab0d06	1.336335
19	0x3f517d89	0.81832176
20	0x3df20749	0.11817796
21	0x3ecc405d	0.39892855
22	0x3d0e6dc9	0.034772668
23	0xbb088f72	-0.0020837453
24	0x3f9aac0e	1.2083757
25	0x3ef80a82	0.48445517
26	0x3f4352e2	0.76298344
27	0x3e73043d	0.23732086
28	0x3fa99bed	1.325071
29	0xbd4b23c9	-0.049594674
30	0x3da5ca3a	0.08095212
31	0xbebefe6d	-0.37303486
32	0xbeba5d5b	-0.3639935
33	0xbf224702	-0.633896
34	0xbeccaeba	-0.39977056
35	0xbdb1c2e2	-0.08679749
36	0x3ed2bd9f	0.41160294
37	0x3ea3a75c	0.31963623
38	0x3e03f874	0.12887746
39	0xbf2d8bb2	-0.67791283
40	0x3f64bcf5	0.89350826
41	0x3f3ba25d	0.7329462
42	0x3df0ea0e	0.117633924
43	0xbc9caec7	-0.01912631
44	0x3e174946	0.14774045
45	0xbfd7bbdf	-1.6854209
46	0xbf30ad7e	-0.6901473
47	0x3ec36765	0.3816482
48	0x3e85e3df	0.26150414
49	0x3e383fef	0.17993139
50	0x3f890081	1.0703279
51	0xbe114a73	-0.14188556
52	0x3cefaf69	0.029258447
53	0xbcb3bfc7	-0.021942033
54	0xbe2fc1bb	-0.17163746
55	0xbc7d4d74	-0.015460361
56	0x3f77c746	0.9678844
57	0x3f862a5a	1.0481675
58	0x3e210e43	0.15728097
59	0xbed81f8a	-0.42211562
60	0xbe290473	-0.16505603
61	0x3f5b6f8d	0.8571709
62	0x3babba83	0.00524074
63	0x3faeb7c9	1.3649837
64	0xbcb2dda3	-0.0218342
65	0xbd6a50e0	-0.057206035
66	0x3b31c964	0.0027128095
67	0x3e9f9344	0.31167042
68	0x3ea03484	0.31290066
69	0xbd8c77c3	-0.0685878
70	0x3e7507ae	0.23928711
71	0x3dc53cd6	0.09630744
72	0xbe08fb9a	-0.13377228
73	0x3f795564	0.9739592
74	0x3f380906	0.7188877
75	0x3f000cc2	0.50019467
76	0x3dae5110	0.08511555
77	0x3f65abca	0.89715254
78	0x3ec8c0d1	0.39209607
79	0x3f470ddd	0.7775553
80	0xbdbe9993	-0.09306636
81	0xbe8ec438	-0.27884078
82	0x3f8a07ce	1.0783632
83	0xbe53dde7	-0.20690118
84	0xbe73764f	-0.237756
85	0xbf2d1954	-0.6761677
86	0xbee81dfb	-0.45335373
87	0x3f4a62d5	0.79057056
88	0xbe845a77	-0.2585027
89	0x3d16b4f3	0.03679366
90	0x3d82b64e	0.06382428
91	0x3db1c221	0.08679605
92	0xbd0569f2	-0.03257174
93	0xbebea2dd	-0.3723363
94	0x3f5a9bfc	0.85394263
95	0xbe32ce0c	-0.17461413
96	0xbf53c6e2	-0.82725346
97	0xbe3dd1b6	-0.1853703
98	0x3f366517	0.71248
99	0x3e75b887	0.23996173
100	0xbd386c0a	-0.04502491
101	0x3e2c2515	0.1681102
102	0xbfec08d0	-1.8440189
103	0x3da14870	0.078751445
104	0x3f0ff1fc	0.56228614
105	0x3ec6d193	0.38831767
106	0x3f16d7a7	0.5892281
107	0xbefa49f7	-0.48884556
108	0xbe48e39f	-0.1961808
109	0x3f954eda	1.1664689
110	0xbedd7729	-0.43254974
111	0x3f461cfa	0.77387965
112	0xbece2926	-0.4026577
113	0x3daec1d7	0.08533066
114	0x3f2daea1	0.6784459
115	0xbce393c5	-0.027780423
116	0xbe21ea30	-0.15811992
117	0x3e2db52f	0.16963647
118	0xbe6d5290	-0.23176026
119	0xbef5d76b	-0.48015913
120	0x3eee29a6	0.4651615
121	0x3f380c29	0.71893555
122	0x3e83e9b0	0.25764227
123	0xbe9954a0	-0.29947376
124	0xbd13d22f	-0.03608912
125	0x3e115fc1	0.14196683
126	0x3dda86dc	0.10670254
127	0x39d70058	0.00041008252
128	0xbf22f466	-0.6365417
129	0x3f5bc3f4	0.85845876
130	0x3cd70c48	0.026250973
131	0x3ebdb4b5	0.3705193
132	0xbf031728	-0.5120721
133	0x3f0aca75	0.54215175
134	0x3f30a23a	0.6899754
135	0x3f7dd0fb	0.99147004
136	0xbf17a695	-0.5923856
137	0x3ef76a81	0.48323444
138	0x3d364441	0.044498686
139	0x3f240a3e	0.6407813
140	0x3ec98574	0.3935963
141	0x3f2f18e5	0.6839736
142	0x3cd4b6b4	0.025966026
143	0x3ea50600	0.3223114
144	0x3f1501d9	0.58205944
145	0x3e086b45	0.1332217
146	0x3ec32698	0.38115382
147	0x3e64772f	0.2231109
148	0x3e160df7	0.14653765
149	0x3e920d25	0.28525653
150	0x3ee68c35	0.45028844
151	0xbe4a415f	-0.197515
152	0x3fa3006b	1.2734503
153	0x3e80f865	0.2518951
154	0xbbab59ae	-0.0052291965
155	0x3f106efc	0.5641935
156	0xbef893ab	-0.48550162
157	0xbd2d456e	-0.04230254
158	0xbd937c06	-0.0720139
159	0x3e8c1225	0.27357593
160	0xbf3f7ad0	-0.7479677
161	0x3e202144	0.1563769
162	0x3f35268c	0.7076194
163	0x3ef11373	0.4708515
164	0x3ef63cb2	0.48093182
165	0xbd970d6e	-0.073756084
166	0x3ec3efa5	0.38268772
167	0xbe8d37df	-0.2758169
168	0x3fd339d0	1.6502018
169	0x3d0886cd	0.03333168
170	0xbf490476	-0.7852243
171	0xbe785a40	-0.24253178
172	0x3d328f53	0.043593716
173	0xbf6cebd3	-0.9254734
174	0xbf044f80	-0.5168381
175	0x3f07b959	0.53017193
176	0xbf57e420	-0.84332466
177	0xbe1b5ebd	-0.15172859
178	0xbcf0ea8d	-0.029408718
179	0xbe0e29c6	-0.13883123
180	0xbf2b1147	-0.6682324
181	0xbdab56c3	-0.08366158
182	0x3f31069a	0.691507
183	0xbd924faa	-0.07144101
184	0x3f06c88f	0.5264978
185	0x3f94182a	1.1569874
186	0x3f2a2c3c	0.66473746
187	0x3e3d27a5	0.18472154
188	0x3e8f7923	0.28022107
189	0x3c507ae5	0.012724613
190	0xbf685bae	-0.9076489
191	0x3fa10c19	1.2581817
192	0x3f3de0c1	0.7417107
193	0xbee21427	-0.44156
194	0xbe26c1d1	-0.16284873
195	0x3ed4a493	0.4153181
196	0x3f3722cb	0.71537465
197	0xbc551193	-0.013004678
198	0x3e41163c	0.18856138
199	0x3ef41b7c	0.4767722

arith.constant2 f4 [11]
0	0xbe8a6ea1	-0.27037528
1	0xbd1faded	-0.038984228
2	0x3eb4c2bc	0.3530482
3	0xbec3625a	-0.38160974
4	0x3f02a6e5	0.5103591
5	0xbe44f9fe	-0.1923599
6	0xbe7e209a	-0.24817124
7	0x3eba448d	0.36380425
8	0xbcd40a79	-0.0258839
9	0x3f042a50	0.51627064
10	0xbefc4f9f	-0.49279496

sequential_1/dense_1_2/BiasAdd/ReadVariableOp f4 [10]
0	0xbe262af3	-0.16227321
1	0x3f198de1	0.59982115
2	0x3e3a054b	0.18166082
3	0xbdd17e81	-0.10229207
4	0x3f903837	1.1267155
5	0x3f19b1f1	0.6003714
6	0x3f316723	0.69298
7	0xbeae19dd	-0.34004107
8	0x3f62235b	0.883352
9	0xbcacd1df	-0.021096168

sequential_1/dense_1/BiasAdd/ReadVariableOp f4 [20]
0	0x3e6b9f80	0.23010063
1	0xbf20dcf1	-0.6283713
2	0xbe6812b9	-0.22663392
3	0xbf8049b1	-1.0022489
4	0xbf4e449a	-0.8057343
5	0xbf1855c4	-0.5950587
6	0xbf573dbe	-0.84078586
7	0x3ef4d9ed	0.47822514
8	0xbed8af4d	-0.42321244
9	0xbf380ce0	-0.71894646
10	0xbcab518d	-0.02091291
11	0xbf5d938d	-0.8655327
12	0xbf17ebeb	-0.5934436
13	0xbf486934	-0.7828553
14	0xbf329a76	-0.6976694
15	0xbf65d082	-0.8977128
16	0xbf0c566b	-0.54819363
17	0xbe7f13b4	-0.2490986
18	0x3dc7b193	0.097506665
19	0xbf15f1f0	-0.5857229

sequential_1/dense_1/MatMul f4 [20, 42]
0	0x3cd88620	0.026431143
1	0x3e886326	0.26638144
2	0xbf1b5661	-0.6067868
3	0xbf17a7fa	-0.59240687
4	0xbea2b473	-0.31778297
5	0xbec13290	-0.3773389
6	0xbd0ee62d	-0.03488748
7	0xbf1288bb	-0.57239884
8	0xbc9e7358	-0.01934211
9	0xbf01de7c	-0.5073011
10	0x3e3229af	0.17398714
11	0xbe1a9324	-0.15095192
12	0x3e02be5e	0.12767932
13	0xbb38ad45	-0.0028179449
14	0x3dd90814	0.10597244
15	0x3e4b9345	0.19880398
16	0x3d5e90c2	0.05433727
17	0x3e363cc1	0.17796613
18	0x3e54f520	0.20796633
19	0xbd90baf6	-0.0706691
20	0x3d27fc0f	0.041011866
21	0x3e15922f	0.14606546
22	0xbd57d5ee	-0.052694254
23	0x3ee7afc4	0.45251286
24	0xbe404a3a	-0.18778315
25	0x3f0c0f52	0.54710877
26	0x3e317c69	0.17332615
27	0xbe37f198	-0.17963254
28	0x3d9d3576	0.076762125
29	0x3d9a98a0	0.07548642
30	0xbe45d0dd	-0.19317956
31	0x3eff44ed	0.49857274
32	0xbd8dd0f3	-0.069246195
33	0x3f521374	0.82060933
34	0x3e53aba2	0.20670941
35	0xbebc97a4	-0.36834443
36	0xbc3b3972	-0.01142727
37	0xbe6862e1	-0.2269397
38	0xbd819eb9	-0.06329102
39	0x3ea18be8	0.31552052
40	0xbdc09c34	-0.094047934
41	0x3f2fdce9	0.6869646
42	0x3c7dade0	0.01548335
43	0xbe85e1ea	-0.2614892
44	0xbec06297	-0.37575218
45	0xbfb0ef94	-1.3823113
46	0xbe2574ca	-0.16157833
47	0xbf8b7783	-1.0895847
48	0xbdde5699	-0.10856361
49	0xbf70a7df	-0.9400615
50	0xbd69b24e	-0.05705481
51	0xbf20b75d	-0.6277979
52	0xbea85296	-0.32875508
53	0xbe15c835	-0.14627154
54	0xbe93ca05	-0.28865066
55	0xbcfcf4bd	-0.030878419
56	0xbd40b73d	-0.04704975
57	0x3da31ffd	0.07965086
58	0x3d92ac53	0.071617745
59	0x3d5d8dad	0.05409019
60	0xbeb010ff	-0.34387967
61	0xbd777763	-0.06041659
62	0xbe745c76	-0.23863396
63	0xbd3f3cb4	-0.04668875
64	0x3cab2ffc	0.020896904
65	0xbc57b163	-0.013164851
66	0x3d4d747d	0.05015992
67	0x3ca54d0a	0.020178337
68	0x3ce5eb9f	0.028066454
69	0x3da634dc	0.08115551
70	0x3da97b65	0.08275489
71	0x3dabdbde	0.08391546
72	0x3e357aab	0.17722575
73	0x3dd1c27d	0.10242174
74	0x3df98d99	0.12185211
75	0x3de58eaf	0.11208855
76	0x3e3ad8b2	0.18246725
77	0x3e960fd0	0.2930894
78	0x3e3a0284	0.18165022
79	0x3e81ab92	0.2532621
80	0x3ea5d1c9	0.32386616
81	0x3e80a2e4	0.25124276
82	0x3c1fe6f7	0.009759656
83	0x3e77164a	0.24129596
84	0x3e612278	0.21985805
85	0xbe30f4f9	-0.1728095
86	0xbc44f8d1	-0.012022213
87	0x3f0ac59f	0.54207796
88	0xbc0a62a2	-0.008446367
89	0x3ea469ae	0.32111877
90	0xbb68e008	-0.0035533924
91	0x3e89aaee	0.26888222
92	0xbca4955e	-0.020090755
93	0x3e86f382	0.26357657
94	0xbcef3c3b	-0.029203525
95	0x3dfdd97f	0.12395
96	0x3baa9a8a	0.005206411
97	0x3e21ac10	0.15788293
98	0x3cb29cf3	0.021803355
99	0x3dae8fa8	0.08523494
100	0xbca7a7e2	-0.020465795
101	0xbfda7b8d	-1.7068955
102	0xbc85d832	-0.016338442
103	0x3e153c14	0.14573699
104	0x3c1c7ea2	0.009551676
105	0x3e31871a	0.17336693
106	0xbac5bb7c	-0.0015085782
107	0x3e32e242	0.17469123
108	0xbc05be54	-0.008163054
109	0x3d9282f1	0.07153881
110	0x3c851721	0.01624638
111	0x3e1a15bb	0.15047352
112	0xbbd5ddf1	-0.0065267016
113	0x3e15de9e	0.14635703
114	0xbd9b7b44	-0.075918704
115	0x3d84f92b	0.064928375
116	0x3cd965ac	0.026537739
117	0xbdfbe6f8	-0.12299913
118	0x3d4f4246	0.050600313
119	0x3e0c34dc	0.13692039
120	0xbd3eb76c	-0.046561643
121	0x3e1275b9	0.1430272
122	0xbcbae213	-0.022812879
123	0x3cfa6bba	0.030568946
124	0xbcb7124d	-0.022347594
125	0xbdf39ff8	-0.11895746
126	0xbe3e18d2	-0.18564156
127	0xbe3589bf	-0.17728327
128	0x3f1bf4c1	0.6092034
129	0xbf0be705	-0.5464938
130	0x3e665e8d	0.22497006
131	0xbe491dbb	-0.19640248
132	0x3e0dbd6b	0.13841788
133	0xbe220f72	-0.15826204
134	0x3dfd457d	0.123667695
135	0xbe93dc1b	-0.28878865
136	0x3e0c9b0b	0.13731019
137	0xbaeec558	-0.0018216772
138	0x3d336695	0.043799
139	0xbc769a84	-0.015051488
140	0xbdb00a05	-0.08595661
141	0x3d84627a	0.064640954
142	0xbe18470f	-0.14870857
143	0x3d4c54c2	0.04988552
144	0x3e320bea	0.17387357
145	0x3b2f1b36	0.00267191
146	0x3ddca5aa	0.107737854
147	0xbde9468e	-0.1139041
148	0x3e643c10	0.22288537
149	0xbe0f615f	-0.14001988
150	0x3ec9ebb0	0.39437628
151	0xbdad40be	-0.08459614
152	0x3e6d2504	0.23158652
153	0xbc4de72f	-0.0125673255
154	0x3de2222f	0.11041676
155	0xbdab6793	-0.083693646
156	0x3e55446b	0.2082688
157	0xbd793867	-0.060844805
158	0x3f1dd2ec	0.61649966
159	0xbd0da8f8	-0.03458497
160	0x3e0f691e	0.14004943
161	0x3dbad190	0.09122002
162	0x3aee6917	0.0018189278
163	0xbcb7f218	-0.022454306
164	0x3c177460	0.009244055
165	0xbd281575	-0.041036088
166	0x3d701a61	0.058618907
167	0xbd4aca97	-0.04950961
168	0x3db26c30	0.087120414
169	0x3e574fb4	0.21026498
170	0x3e7bcfb2	0.24590948
171	0x3e0401e4	0.12891346
172	0x3db77108	0.08957106
173	0x3e089652	0.13338593
174	0x3dc5492d	0.09633098
175	0x3dbde781	0.092726715
176	0x3e1b9c42	0.15196326
177	0xbb7e9d24	-0.0038850987
178	0x3da50880	0.08058262
179	0x3b6b4686	0.003590019
180	0x3d28472a	0.041083492
181	0x3d698960	0.057015777
182	0xbdd340d1	-0.10315097
183	0x3da63380	0.081152916
184	0xbd5b6b3d	-0.053569067
185	0x3d9273f6	0.07151024
186	0x3e3cbfc7	0.18432532
187	0xbd12c735	-0.03583451
188	0x3db33073	0.08749475
189	0x3d1b79d7	0.037957992
190	0xbe272f28	-0.16326582
191	0xbdd1da9c	-0.102467746
192	0xbf1302e3	-0.5742628
193	0xbe961147	-0.29310057
194	0x3e8dae8b	0.27672228
195	0x3c2d6766	0.010583734
196	0x3e21087f	0.15725897
197	0xba21e91c	-0.00061763986
198	0xbea446df	-0.3208532
199	0xbf246c92	-0.64228165
200	0xbf23a334	-0.63920903
201	0xbf8ba9f4	-1.091124
202	0x3e9b5ca5	0.3034412
203	0x3db64fbe	0.08901928
204	0x3e8831f4	0.2660061
205	0x3de43b76	0.11144154
206	0x3cd82fb4	0.026389934
207	0xbe2741ca	-0.1633369
208	0xbf0be298	-0.5464263
209	0xbed098ab	-0.40741476
210	0x3e182a18	0.14859807
211	0x3e45ab78	0.19303691
212	0x3c2157cb	0.009847592
213	0x3ebdee09	0.3709567
214	0xbcba9963	-0.022778219
215	0x3e7a8556	0.24464926
216	0xbe497e79	-0.19677152
217	0x3ebae29b	0.3650101
218	0xbdc199b0	-0.09453142
219	0x3e9d5413	0.30728206
220	0x3e109c89	0.14122213
221	0x3e024b03	0.12723927
222	0x3d9f8a18	0.07790011
223	0x3daeaf06	0.08529477
224	0xbb6a6eb1	-0.0035771544
225	0x3dc7c9d9	0.09755296
226	0x3bf1d456	0.0073800487
227	0x3d4b8c6d	0.049694467
228	0x3e47d746	0.19515714
229	0x3db9054e	0.09034215
230	0x3d8b286a	0.06794818
231	0x3de4f2f1	0.1117915
232	0xbd868c25	-0.06569699
233	0x3d575edc	0.0525807
234	0xbdad18f6	-0.084520265
235	0xbe0d46fe	-0.13796613
236	0x3e1f0a8a	0.15531364
237	0x3dccb6a5	0.09995774
238	0x3d65fe56	0.056150757
239	0xbcadb0fe	-0.02120256
240	0xbda28764	-0.0793598
241	0xbe377dbc	-0.17919058
242	0xbd6586dc	-0.056036815
243	0xbf21cc65	-0.63202506
244	0x3d8cdf5b	0.06878539
245	0xbc48c6cb	-0.012254427
246	0xbc2c2f52	-0.010509329
247	0xbe130a68	-0.14359438
248	0xbe167c3b	-0.14695828
249	0xbf487b77	-0.7831339
250	0xbe923a23	-0.2855998
251	0xbfa4d48b	-1.2877363
252	0x3c565fe0	0.013084382
253	0x3e4e206c	0.20129555
254	0xbe8f1e25	-0.27952686
255	0x3ebc2b40	0.36751747
